…
[SAVED TO all_outputs.txt] Saved Figure as "[4]depthhistory1.pdf"
Model: "functional_811"
__________________________________________________________________________________________________
Layer (type)                    Output Shape         Param #     Connected to                     
==================================================================================================
input_406 (InputLayer)          [(None, 500, 4)]     0                                            
__________________________________________________________________________________________________
dense_4134 (Dense)              (None, 500, 4)       20          input_406[0][0]                  
__________________________________________________________________________________________________
dense_4135 (Dense)              (None, 500, 4)       20          input_406[0][0]                  
__________________________________________________________________________________________________
dense_4137 (Dense)              (None, 500, 4)       20          input_406[0][0]                  
__________________________________________________________________________________________________
dense_4138 (Dense)              (None, 500, 4)       20          input_406[0][0]                  
__________________________________________________________________________________________________
concatenate_1665 (Concatenate)  (None, 500, 8)       0           dense_4134[0][0]                 
                                                                 dense_4135[0][0]                 
__________________________________________________________________________________________________
concatenate_1666 (Concatenate)  (None, 500, 8)       0           dense_4137[0][0]                 
                                                                 dense_4138[0][0]                 
__________________________________________________________________________________________________
dense_4136 (Dense)              (None, 500, 4)       36          concatenate_1665[0][0]           
__________________________________________________________________________________________________
dense_4139 (Dense)              (None, 500, 3)       27          concatenate_1666[0][0]           
__________________________________________________________________________________________________
re_lu_826 (ReLU)                (None, 500, 4)       0           dense_4136[0][0]                 
__________________________________________________________________________________________________
activation_836 (Activation)     (None, 500, 3)       0           dense_4139[0][0]                 
__________________________________________________________________________________________________
concatenate_1664 (Concatenate)  (None, 500, 7)       0           re_lu_826[0][0]                  
                                                                 activation_836[0][0]             
__________________________________________________________________________________________________
dense_4140 (Dense)              (None, 500, 7)       56          concatenate_1664[0][0]           
__________________________________________________________________________________________________
re_lu_827 (ReLU)                (None, 500, 7)       0           dense_4140[0][0]                 
__________________________________________________________________________________________________
dense_4141 (Dense)              (None, 500, 4)       20          input_406[0][0]                  
__________________________________________________________________________________________________
dense_4143 (Dense)              (None, 500, 4)       20          input_406[0][0]                  
__________________________________________________________________________________________________
dense_4144 (Dense)              (None, 500, 4)       20          input_406[0][0]                  
__________________________________________________________________________________________________
concatenate_1663 (Concatenate)  (None, 500, 11)      0           re_lu_827[0][0]                  
                                                                 dense_4141[0][0]                 
__________________________________________________________________________________________________
concatenate_1667 (Concatenate)  (None, 500, 8)       0           dense_4143[0][0]                 
                                                                 dense_4144[0][0]                 
__________________________________________________________________________________________________
dense_4142 (Dense)              (None, 500, 2)       24          concatenate_1663[0][0]           
__________________________________________________________________________________________________
dense_4145 (Dense)              (None, 500, 6)       54          concatenate_1667[0][0]           
__________________________________________________________________________________________________
re_lu_828 (ReLU)                (None, 500, 2)       0           dense_4142[0][0]                 
__________________________________________________________________________________________________
activation_837 (Activation)     (None, 500, 6)       0           dense_4145[0][0]                 
__________________________________________________________________________________________________
concatenate_1662 (Concatenate)  (None, 500, 8)       0           re_lu_828[0][0]                  
                                                                 activation_837[0][0]             
__________________________________________________________________________________________________
dense_4146 (Dense)              (None, 500, 5)       45          concatenate_1662[0][0]           
__________________________________________________________________________________________________
re_lu_829 (ReLU)                (None, 500, 5)       0           dense_4146[0][0]                 
__________________________________________________________________________________________________
dense_4147 (Dense)              (None, 500, 1)       6           re_lu_829[0][0]                  
==================================================================================================
Total params: 388
Trainable params: 388
Non-trainable params: 0
__________________________________________________________________________________________________
1/8 [==>...........................] - ETA: 0s - loss: 0.4784 - accuracy: 0.81258/8 [==============================] - 0s 528us/step - loss: 0.4924 - accuracy: 0.8320
…
