…
61/100: Best Fitness 0.25197669863700867
66/100: Best Fitness 0.25197669863700867
71/100: Best Fitness 0.2485780268907547
76/100: Best Fitness 0.2485780268907547
81/100: Best Fitness 0.2485780268907547
86/100: Best Fitness 0.2485780268907547
91/100: Best Fitness 0.2485780268907547
96/100: Best Fitness 0.2485780268907547
100/100: Best Fitness 0.2485780268907547
Model: "sequential_3031"
_________________________________________________________________
Layer (type)                 Output Shape              Param #   
=================================================================
dense_10632 (Dense)          (None, 11)                55        
_________________________________________________________________
re_lu_7601 (ReLU)            (None, 11)                0         
_________________________________________________________________
dense_10633 (Dense)          (None, 5)                 60        
_________________________________________________________________
re_lu_7602 (ReLU)            (None, 5)                 0         
_________________________________________________________________
dense_10634 (Dense)          (None, 15)                90        
_________________________________________________________________
re_lu_7603 (ReLU)            (None, 15)                0         
_________________________________________________________________
dense_10635 (Dense)          (None, 9)                 144       
_________________________________________________________________
re_lu_7604 (ReLU)            (None, 9)                 0         
_________________________________________________________________
dense_10636 (Dense)          (None, 1)                 10        
=================================================================
Total params: 359
Trainable params: 359
Non-trainable params: 0
_________________________________________________________________
1/8 [==>...........................] - ETA: 0s - loss: 0.1455 - accuracy: 1.00008/8 [==============================] - 0s 457us/step - loss: 0.1508 - accuracy: 0.9880
…
96/100: Best Fitness 0.3709004521369934
100/100: Best Fitness 0.3709004521369934
Model: "functional_6063"
__________________________________________________________________________________________________
Layer (type)                    Output Shape         Param #     Connected to                     
==================================================================================================
input_3032 (InputLayer)         [(None, 500, 4)]     0                                            
__________________________________________________________________________________________________
dense_18654 (Dense)             (None, 500, 4)       20          input_3032[0][0]                 
__________________________________________________________________________________________________
dense_18655 (Dense)             (None, 500, 4)       20          input_3032[0][0]                 
__________________________________________________________________________________________________
concatenate_978 (Concatenate)   (None, 500, 8)       0           dense_18654[0][0]                
                                                                 dense_18655[0][0]                
__________________________________________________________________________________________________
dense_18656 (Dense)             (None, 500, 5)       45          concatenate_978[0][0]            
__________________________________________________________________________________________________
dense_18653 (Dense)             (None, 500, 4)       20          input_3032[0][0]                 
__________________________________________________________________________________________________
re_lu_7968 (ReLU)               (None, 500, 5)       0           dense_18656[0][0]                
__________________________________________________________________________________________________
concatenate_977 (Concatenate)   (None, 500, 9)       0           dense_18653[0][0]                
                                                                 re_lu_7968[0][0]                 
__________________________________________________________________________________________________
dense_18657 (Dense)             (None, 500, 5)       50          concatenate_977[0][0]            
__________________________________________________________________________________________________
activation_614 (Activation)     (None, 500, 5)       0           dense_18657[0][0]                
__________________________________________________________________________________________________
dense_18658 (Dense)             (None, 500, 1)       6           activation_614[0][0]             
==================================================================================================
Total params: 161
Trainable params: 161
Non-trainable params: 0
__________________________________________________________________________________________________
1/8 [==>...........................] - ETA: 0s - loss: 0.0705 - accuracy: 1.00008/8 [==============================] - 0s 461us/step - loss: 0.0659 - accuracy: 0.9960
…
