…
35/50: Best Fitness 0.3420032262802124
37/50: Best Fitness 0.3420032262802124
39/50: Best Fitness 0.3420032262802124
41/50: Best Fitness 0.3420032262802124
43/50: Best Fitness 0.3420032262802124
45/50: Best Fitness 0.3420032262802124
47/50: Best Fitness 0.3420032262802124
49/50: Best Fitness 0.3420032262802124
50/50: Best Fitness 0.3420032262802124
Model: "sequential_1021"
_________________________________________________________________
Layer (type)                 Output Shape              Param #   
=================================================================
dense_3819 (Dense)           (None, 12)                60        
_________________________________________________________________
re_lu_2798 (ReLU)            (None, 12)                0         
_________________________________________________________________
dense_3820 (Dense)           (None, 15)                195       
_________________________________________________________________
re_lu_2799 (ReLU)            (None, 15)                0         
_________________________________________________________________
dense_3821 (Dense)           (None, 8)                 128       
_________________________________________________________________
re_lu_2800 (ReLU)            (None, 8)                 0         
_________________________________________________________________
dense_3822 (Dense)           (None, 4)                 36        
_________________________________________________________________
re_lu_2801 (ReLU)            (None, 4)                 0         
_________________________________________________________________
dense_3823 (Dense)           (None, 1)                 5         
=================================================================
Total params: 424
Trainable params: 424
Non-trainable params: 0
_________________________________________________________________
1/8 [==>...........................] - ETA: 0s - loss: 0.1610 - accuracy: 1.00008/8 [==============================] - 0s 482us/step - loss: 0.1514 - accuracy: 0.9920
…
35/50: Best Fitness 0.4415014088153839
37/50: Best Fitness 0.4415014088153839
39/50: Best Fitness 0.41440364718437195
41/50: Best Fitness 0.41440364718437195
43/50: Best Fitness 0.41440364718437195
45/50: Best Fitness 0.41440364718437195
47/50: Best Fitness 0.41440364718437195
49/50: Best Fitness 0.41440364718437195
50/50: Best Fitness 0.41440364718437195
Model: "sequential_2043"
_________________________________________________________________
Layer (type)                 Output Shape              Param #   
=================================================================
dense_7249 (Dense)           (None, 8)                 40        
_________________________________________________________________
re_lu_5206 (ReLU)            (None, 8)                 0         
_________________________________________________________________
dense_7250 (Dense)           (None, 14)                126       
_________________________________________________________________
re_lu_5207 (ReLU)            (None, 14)                0         
_________________________________________________________________
dense_7251 (Dense)           (None, 13)                195       
_________________________________________________________________
re_lu_5208 (ReLU)            (None, 13)                0         
_________________________________________________________________
dense_7252 (Dense)           (None, 1)                 14        
=================================================================
Total params: 375
Trainable params: 375
Non-trainable params: 0
_________________________________________________________________
1/8 [==>...........................] - ETA: 0s - loss: 0.1567 - accuracy: 1.00008/8 [==============================] - 0s 401us/step - loss: 0.1596 - accuracy: 0.9920
…
35/50: Best Fitness 0.4463876783847809
37/50: Best Fitness 0.4463876783847809
39/50: Best Fitness 0.3986567556858063
41/50: Best Fitness 0.3986567556858063
43/50: Best Fitness 0.3986567556858063
45/50: Best Fitness 0.3986567556858063
47/50: Best Fitness 0.3986567556858063
49/50: Best Fitness 0.39267897605895996
50/50: Best Fitness 0.39267897605895996
Model: "sequential_3065"
_________________________________________________________________
Layer (type)                 Output Shape              Param #   
=================================================================
dense_10947 (Dense)          (None, 7)                 35        
_________________________________________________________________
re_lu_7882 (ReLU)            (None, 7)                 0         
_________________________________________________________________
dense_10948 (Dense)          (None, 8)                 64        
_________________________________________________________________
re_lu_7883 (ReLU)            (None, 8)                 0         
_________________________________________________________________
dense_10949 (Dense)          (None, 8)                 72        
_________________________________________________________________
re_lu_7884 (ReLU)            (None, 8)                 0         
_________________________________________________________________
dense_10950 (Dense)          (None, 8)                 72        
_________________________________________________________________
re_lu_7885 (ReLU)            (None, 8)                 0         
_________________________________________________________________
dense_10951 (Dense)          (None, 10)                90        
_________________________________________________________________
re_lu_7886 (ReLU)            (None, 10)                0         
_________________________________________________________________
dense_10952 (Dense)          (None, 1)                 11        
=================================================================
Total params: 344
Trainable params: 344
Non-trainable params: 0
_________________________________________________________________
1/8 [==>...........................] - ETA: 0s - loss: 0.5205 - accuracy: 0.87508/8 [==============================] - 0s 517us/step - loss: 0.4435 - accuracy: 0.9160
…
35/50: Best Fitness 0.4795280992984772
37/50: Best Fitness 0.4795280992984772
39/50: Best Fitness 0.4084879159927368
41/50: Best Fitness 0.4084879159927368
43/50: Best Fitness 0.4084879159927368
45/50: Best Fitness 0.4084879159927368
47/50: Best Fitness 0.4084879159927368
49/50: Best Fitness 0.4084879159927368
50/50: Best Fitness 0.4084879159927368
Model: "sequential_4087"
_________________________________________________________________
Layer (type)                 Output Shape              Param #   
=================================================================
dense_14866 (Dense)          (None, 6)                 30        
_________________________________________________________________
re_lu_10779 (ReLU)           (None, 6)                 0         
_________________________________________________________________
dense_14867 (Dense)          (None, 15)                105       
_________________________________________________________________
re_lu_10780 (ReLU)           (None, 15)                0         
_________________________________________________________________
dense_14868 (Dense)          (None, 5)                 80        
_________________________________________________________________
re_lu_10781 (ReLU)           (None, 5)                 0         
_________________________________________________________________
dense_14869 (Dense)          (None, 7)                 42        
_________________________________________________________________
re_lu_10782 (ReLU)           (None, 7)                 0         
_________________________________________________________________
dense_14870 (Dense)          (None, 1)                 8         
=================================================================
Total params: 265
Trainable params: 265
Non-trainable params: 0
_________________________________________________________________
1/8 [==>...........................] - ETA: 0s - loss: 0.1934 - accuracy: 0.93758/8 [==============================] - 0s 467us/step - loss: 0.1575 - accuracy: 0.9840
…
35/50: Best Fitness 0.40971168875694275
37/50: Best Fitness 0.40971168875694275
39/50: Best Fitness 0.40971168875694275
41/50: Best Fitness 0.40971168875694275
43/50: Best Fitness 0.40971168875694275
45/50: Best Fitness 0.40971168875694275
47/50: Best Fitness 0.40971168875694275
49/50: Best Fitness 0.40971168875694275
50/50: Best Fitness 0.40971168875694275
Model: "sequential_5109"
_________________________________________________________________
Layer (type)                 Output Shape              Param #   
=================================================================
dense_18498 (Dense)          (None, 8)                 40        
_________________________________________________________________
re_lu_13389 (ReLU)           (None, 8)                 0         
_________________________________________________________________
dense_18499 (Dense)          (None, 12)                108       
_________________________________________________________________
re_lu_13390 (ReLU)           (None, 12)                0         
_________________________________________________________________
dense_18500 (Dense)          (None, 12)                156       
_________________________________________________________________
re_lu_13391 (ReLU)           (None, 12)                0         
_________________________________________________________________
dense_18501 (Dense)          (None, 13)                169       
_________________________________________________________________
re_lu_13392 (ReLU)           (None, 13)                0         
_________________________________________________________________
dense_18502 (Dense)          (None, 1)                 14        
=================================================================
Total params: 487
Trainable params: 487
Non-trainable params: 0
_________________________________________________________________
1/8 [==>...........................] - ETA: 0s - loss: 0.1210 - accuracy: 1.00008/8 [==============================] - 0s 473us/step - loss: 0.1218 - accuracy: 0.9960
…
49/50: Best Fitness 0.44100844860076904
50/50: Best Fitness 0.44100844860076904
Model: "functional_2043"
__________________________________________________________________________________________________
Layer (type)                    Output Shape         Param #     Connected to                     
==================================================================================================
input_1022 (InputLayer)         [(None, 500, 4)]     0                                            
__________________________________________________________________________________________________
dense_23061 (Dense)             (None, 500, 4)       20          input_1022[0][0]                 
__________________________________________________________________________________________________
dense_23062 (Dense)             (None, 500, 4)       20          input_1022[0][0]                 
__________________________________________________________________________________________________
concatenate_1259 (Concatenate)  (None, 500, 8)       0           dense_23061[0][0]                
                                                                 dense_23062[0][0]                
__________________________________________________________________________________________________
dense_23063 (Dense)             (None, 500, 1)       9           concatenate_1259[0][0]           
__________________________________________________________________________________________________
dense_23060 (Dense)             (None, 500, 4)       20          input_1022[0][0]                 
__________________________________________________________________________________________________
re_lu_13899 (ReLU)              (None, 500, 1)       0           dense_23063[0][0]                
__________________________________________________________________________________________________
concatenate_1258 (Concatenate)  (None, 500, 5)       0           dense_23060[0][0]                
                                                                 re_lu_13899[0][0]                
__________________________________________________________________________________________________
dense_23064 (Dense)             (None, 500, 8)       48          concatenate_1258[0][0]           
__________________________________________________________________________________________________
dense_23059 (Dense)             (None, 500, 4)       20          input_1022[0][0]                 
__________________________________________________________________________________________________
activation_751 (Activation)     (None, 500, 8)       0           dense_23064[0][0]                
__________________________________________________________________________________________________
concatenate_1257 (Concatenate)  (None, 500, 12)      0           dense_23059[0][0]                
                                                                 activation_751[0][0]             
__________________________________________________________________________________________________
dense_23065 (Dense)             (None, 500, 2)       26          concatenate_1257[0][0]           
__________________________________________________________________________________________________
activation_752 (Activation)     (None, 500, 2)       0           dense_23065[0][0]                
__________________________________________________________________________________________________
dense_23066 (Dense)             (None, 500, 1)       3           activation_752[0][0]             
==================================================================================================
Total params: 166
Trainable params: 166
Non-trainable params: 0
__________________________________________________________________________________________________
1/8 [==>...........................] - ETA: 0s - loss: 0.3407 - accuracy: 0.84388/8 [==============================] - 0s 733us/step - loss: 0.3843 - accuracy: 0.8200
…
49/50: Best Fitness 0.2712363600730896
50/50: Best Fitness 0.2712363600730896
Model: "functional_4087"
__________________________________________________________________________________________________
Layer (type)                    Output Shape         Param #     Connected to                     
==================================================================================================
input_2044 (InputLayer)         [(None, 500, 4)]     0                                            
__________________________________________________________________________________________________
dense_30276 (Dense)             (None, 500, 4)       20          input_2044[0][0]                 
__________________________________________________________________________________________________
dense_30277 (Dense)             (None, 500, 4)       20          input_2044[0][0]                 
__________________________________________________________________________________________________
concatenate_3845 (Concatenate)  (None, 500, 8)       0           dense_30276[0][0]                
                                                                 dense_30277[0][0]                
__________________________________________________________________________________________________
dense_30278 (Dense)             (None, 500, 3)       27          concatenate_3845[0][0]           
__________________________________________________________________________________________________
re_lu_14437 (ReLU)              (None, 500, 3)       0           dense_30278[0][0]                
__________________________________________________________________________________________________
dense_30279 (Dense)             (None, 500, 4)       20          input_2044[0][0]                 
__________________________________________________________________________________________________
concatenate_3844 (Concatenate)  (None, 500, 7)       0           re_lu_14437[0][0]                
                                                                 dense_30279[0][0]                
__________________________________________________________________________________________________
dense_30280 (Dense)             (None, 500, 10)      80          concatenate_3844[0][0]           
__________________________________________________________________________________________________
dense_30275 (Dense)             (None, 500, 4)       20          input_2044[0][0]                 
__________________________________________________________________________________________________
activation_2799 (Activation)    (None, 500, 10)      0           dense_30280[0][0]                
__________________________________________________________________________________________________
concatenate_3843 (Concatenate)  (None, 500, 14)      0           dense_30275[0][0]                
                                                                 activation_2799[0][0]            
__________________________________________________________________________________________________
dense_30281 (Dense)             (None, 500, 7)       105         concatenate_3843[0][0]           
__________________________________________________________________________________________________
activation_2800 (Activation)    (None, 500, 7)       0           dense_30281[0][0]                
__________________________________________________________________________________________________
dense_30282 (Dense)             (None, 500, 1)       8           activation_2800[0][0]            
==================================================================================================
Total params: 300
Trainable params: 300
Non-trainable params: 0
__________________________________________________________________________________________________
1/8 [==>...........................] - ETA: 0s - loss: 0.1163 - accuracy: 1.00008/8 [==============================] - 0s 524us/step - loss: 0.1260 - accuracy: 0.9760
…
49/50: Best Fitness 0.16413293778896332
50/50: Best Fitness 0.16413293778896332
Model: "functional_6131"
__________________________________________________________________________________________________
Layer (type)                    Output Shape         Param #     Connected to                     
==================================================================================================
input_3066 (InputLayer)         [(None, 500, 4)]     0                                            
__________________________________________________________________________________________________
dense_35556 (Dense)             (None, 500, 4)       20          input_3066[0][0]                 
__________________________________________________________________________________________________
dense_35557 (Dense)             (None, 500, 4)       20          input_3066[0][0]                 
__________________________________________________________________________________________________
dense_35559 (Dense)             (None, 500, 4)       20          input_3066[0][0]                 
__________________________________________________________________________________________________
dense_35560 (Dense)             (None, 500, 4)       20          input_3066[0][0]                 
__________________________________________________________________________________________________
concatenate_5463 (Concatenate)  (None, 500, 8)       0           dense_35556[0][0]                
                                                                 dense_35557[0][0]                
__________________________________________________________________________________________________
concatenate_5464 (Concatenate)  (None, 500, 8)       0           dense_35559[0][0]                
                                                                 dense_35560[0][0]                
__________________________________________________________________________________________________
dense_35558 (Dense)             (None, 500, 7)       63          concatenate_5463[0][0]           
__________________________________________________________________________________________________
dense_35561 (Dense)             (None, 500, 7)       63          concatenate_5464[0][0]           
__________________________________________________________________________________________________
activation_3744 (Activation)    (None, 500, 7)       0           dense_35558[0][0]                
__________________________________________________________________________________________________
activation_3745 (Activation)    (None, 500, 7)       0           dense_35561[0][0]                
__________________________________________________________________________________________________
concatenate_5462 (Concatenate)  (None, 500, 14)      0           activation_3744[0][0]            
                                                                 activation_3745[0][0]            
__________________________________________________________________________________________________
dense_35562 (Dense)             (None, 500, 5)       75          concatenate_5462[0][0]           
__________________________________________________________________________________________________
dense_35555 (Dense)             (None, 500, 4)       20          input_3066[0][0]                 
__________________________________________________________________________________________________
re_lu_15110 (ReLU)              (None, 500, 5)       0           dense_35562[0][0]                
__________________________________________________________________________________________________
concatenate_5461 (Concatenate)  (None, 500, 9)       0           dense_35555[0][0]                
                                                                 re_lu_15110[0][0]                
__________________________________________________________________________________________________
dense_35563 (Dense)             (None, 500, 4)       40          concatenate_5461[0][0]           
__________________________________________________________________________________________________
activation_3746 (Activation)    (None, 500, 4)       0           dense_35563[0][0]                
__________________________________________________________________________________________________
dense_35564 (Dense)             (None, 500, 1)       5           activation_3746[0][0]            
==================================================================================================
Total params: 346
Trainable params: 346
Non-trainable params: 0
__________________________________________________________________________________________________
1/8 [==>...........................] - ETA: 0s - loss: 0.2836 - accuracy: 0.96888/8 [==============================] - 0s 513us/step - loss: 0.2973 - accuracy: 0.9720
…
49/50: Best Fitness 0.500849187374115
50/50: Best Fitness 0.500849187374115
Model: "functional_8175"
__________________________________________________________________________________________________
Layer (type)                    Output Shape         Param #     Connected to                     
==================================================================================================
input_4088 (InputLayer)         [(None, 500, 4)]     0                                            
__________________________________________________________________________________________________
dense_38669 (Dense)             (None, 500, 4)       20          input_4088[0][0]                 
__________________________________________________________________________________________________
dense_38670 (Dense)             (None, 500, 4)       20          input_4088[0][0]                 
__________________________________________________________________________________________________
concatenate_5997 (Concatenate)  (None, 500, 8)       0           dense_38669[0][0]                
                                                                 dense_38670[0][0]                
__________________________________________________________________________________________________
dense_38671 (Dense)             (None, 500, 6)       54          concatenate_5997[0][0]           
__________________________________________________________________________________________________
activation_4093 (Activation)    (None, 500, 6)       0           dense_38671[0][0]                
__________________________________________________________________________________________________
dense_38672 (Dense)             (None, 500, 4)       20          input_4088[0][0]                 
__________________________________________________________________________________________________
concatenate_5996 (Concatenate)  (None, 500, 10)      0           activation_4093[0][0]            
                                                                 dense_38672[0][0]                
__________________________________________________________________________________________________
dense_38673 (Dense)             (None, 500, 10)      110         concatenate_5996[0][0]           
__________________________________________________________________________________________________
activation_4094 (Activation)    (None, 500, 10)      0           dense_38673[0][0]                
__________________________________________________________________________________________________
dense_38674 (Dense)             (None, 500, 1)       11          activation_4094[0][0]            
==================================================================================================
Total params: 235
Trainable params: 235
Non-trainable params: 0
__________________________________________________________________________________________________
1/8 [==>...........................] - ETA: 0s - loss: 0.1309 - accuracy: 0.96888/8 [==============================] - 0s 539us/step - loss: 0.1764 - accuracy: 0.9680
…
49/50: Best Fitness 0.4066183567047119
50/50: Best Fitness 0.4066183567047119
Model: "functional_10219"
__________________________________________________________________________________________________
Layer (type)                    Output Shape         Param #     Connected to                     
==================================================================================================
input_5110 (InputLayer)         [(None, 500, 4)]     0                                            
__________________________________________________________________________________________________
dense_44715 (Dense)             (None, 500, 4)       20          input_5110[0][0]                 
__________________________________________________________________________________________________
dense_44716 (Dense)             (None, 500, 4)       20          input_5110[0][0]                 
__________________________________________________________________________________________________
concatenate_7998 (Concatenate)  (None, 500, 8)       0           dense_44715[0][0]                
                                                                 dense_44716[0][0]                
__________________________________________________________________________________________________
dense_44717 (Dense)             (None, 500, 7)       63          concatenate_7998[0][0]           
__________________________________________________________________________________________________
activation_4963 (Activation)    (None, 500, 7)       0           dense_44717[0][0]                
__________________________________________________________________________________________________
dense_44718 (Dense)             (None, 500, 4)       20          input_5110[0][0]                 
__________________________________________________________________________________________________
concatenate_7997 (Concatenate)  (None, 500, 11)      0           activation_4963[0][0]            
                                                                 dense_44718[0][0]                
__________________________________________________________________________________________________
dense_44719 (Dense)             (None, 500, 7)       84          concatenate_7997[0][0]           
__________________________________________________________________________________________________
re_lu_16427 (ReLU)              (None, 500, 7)       0           dense_44719[0][0]                
__________________________________________________________________________________________________
dense_44720 (Dense)             (None, 500, 1)       8           re_lu_16427[0][0]                
==================================================================================================
Total params: 215
Trainable params: 215
Non-trainable params: 0
__________________________________________________________________________________________________
1/8 [==>...........................] - ETA: 0s - loss: 0.0842 - accuracy: 1.00008/8 [==============================] - 0s 552us/step - loss: 0.1100 - accuracy: 0.9800
…
49/50: Best Fitness 0.5423388481140137
50/50: Best Fitness 0.5423388481140137
Model: "functional_12263"
__________________________________________________________________________________________________
Layer (type)                    Output Shape         Param #     Connected to                     
==================================================================================================
input_6132 (InputLayer)         [(None, 500, 4)]     0                                            
__________________________________________________________________________________________________
dense_47463 (Dense)             (None, 500, 4)       20          input_6132[0][0]                 
__________________________________________________________________________________________________
dense_47464 (Dense)             (None, 500, 4)       20          input_6132[0][0]                 
__________________________________________________________________________________________________
concatenate_8349 (Concatenate)  (None, 500, 8)       0           dense_47463[0][0]                
                                                                 dense_47464[0][0]                
__________________________________________________________________________________________________
dense_47465 (Dense)             (None, 500, 10)      90          concatenate_8349[0][0]           
__________________________________________________________________________________________________
activation_5186 (Activation)    (None, 500, 10)      0           dense_47465[0][0]                
__________________________________________________________________________________________________
dense_47466 (Dense)             (None, 500, 1)       11          activation_5186[0][0]            
==================================================================================================
Total params: 141
Trainable params: 141
Non-trainable params: 0
__________________________________________________________________________________________________
1/8 [==>...........................] - ETA: 0s - loss: 0.0677 - accuracy: 1.00008/8 [==============================] - 0s 430us/step - loss: 0.0890 - accuracy: 0.9880
…
49/50: Best Fitness 0.4746807813644409
50/50: Best Fitness 0.4746807813644409
Model: "functional_14307"
__________________________________________________________________________________________________
Layer (type)                    Output Shape         Param #     Connected to                     
==================================================================================================
input_7154 (InputLayer)         [(None, 500, 4)]     0                                            
__________________________________________________________________________________________________
dense_53778 (Dense)             (None, 500, 4)       20          input_7154[0][0]                 
__________________________________________________________________________________________________
dense_53779 (Dense)             (None, 500, 4)       20          input_7154[0][0]                 
__________________________________________________________________________________________________
concatenate_10486 (Concatenate) (None, 500, 8)       0           dense_53778[0][0]                
                                                                 dense_53779[0][0]                
__________________________________________________________________________________________________
dense_53780 (Dense)             (None, 500, 2)       18          concatenate_10486[0][0]          
__________________________________________________________________________________________________
dense_53777 (Dense)             (None, 500, 4)       20          input_7154[0][0]                 
__________________________________________________________________________________________________
activation_6733 (Activation)    (None, 500, 2)       0           dense_53780[0][0]                
__________________________________________________________________________________________________
concatenate_10485 (Concatenate) (None, 500, 6)       0           dense_53777[0][0]                
                                                                 activation_6733[0][0]            
__________________________________________________________________________________________________
dense_53781 (Dense)             (None, 500, 3)       21          concatenate_10485[0][0]          
__________________________________________________________________________________________________
activation_6734 (Activation)    (None, 500, 3)       0           dense_53781[0][0]                
__________________________________________________________________________________________________
dense_53782 (Dense)             (None, 500, 4)       20          input_7154[0][0]                 
__________________________________________________________________________________________________
concatenate_10484 (Concatenate) (None, 500, 7)       0           activation_6734[0][0]            
                                                                 dense_53782[0][0]                
__________________________________________________________________________________________________
dense_53783 (Dense)             (None, 500, 1)       8           concatenate_10484[0][0]          
__________________________________________________________________________________________________
activation_6735 (Activation)    (None, 500, 1)       0           dense_53783[0][0]                
__________________________________________________________________________________________________
dense_53784 (Dense)             (None, 500, 1)       2           activation_6735[0][0]            
==================================================================================================
Total params: 129
Trainable params: 129
Non-trainable params: 0
__________________________________________________________________________________________________
1/8 [==>...........................] - ETA: 0s - loss: 0.3846 - accuracy: 0.90628/8 [==============================] - 0s 450us/step - loss: 0.6119 - accuracy: 0.7360
…
49/50: Best Fitness 0.47746211290359497
50/50: Best Fitness 0.47746211290359497
Model: "functional_16351"
__________________________________________________________________________________________________
Layer (type)                    Output Shape         Param #     Connected to                     
==================================================================================================
input_8176 (InputLayer)         [(None, 500, 4)]     0                                            
__________________________________________________________________________________________________
dense_57653 (Dense)             (None, 500, 4)       20          input_8176[0][0]                 
__________________________________________________________________________________________________
dense_57654 (Dense)             (None, 500, 4)       20          input_8176[0][0]                 
__________________________________________________________________________________________________
dense_57656 (Dense)             (None, 500, 4)       20          input_8176[0][0]                 
__________________________________________________________________________________________________
dense_57657 (Dense)             (None, 500, 4)       20          input_8176[0][0]                 
__________________________________________________________________________________________________
concatenate_11401 (Concatenate) (None, 500, 8)       0           dense_57653[0][0]                
                                                                 dense_57654[0][0]                
__________________________________________________________________________________________________
concatenate_11402 (Concatenate) (None, 500, 8)       0           dense_57656[0][0]                
                                                                 dense_57657[0][0]                
__________________________________________________________________________________________________
dense_57655 (Dense)             (None, 500, 10)      90          concatenate_11401[0][0]          
__________________________________________________________________________________________________
dense_57658 (Dense)             (None, 500, 8)       72          concatenate_11402[0][0]          
__________________________________________________________________________________________________
activation_7325 (Activation)    (None, 500, 10)      0           dense_57655[0][0]                
__________________________________________________________________________________________________
re_lu_17468 (ReLU)              (None, 500, 8)       0           dense_57658[0][0]                
__________________________________________________________________________________________________
concatenate_11400 (Concatenate) (None, 500, 18)      0           activation_7325[0][0]            
                                                                 re_lu_17468[0][0]                
__________________________________________________________________________________________________
dense_57659 (Dense)             (None, 500, 1)       19          concatenate_11400[0][0]          
__________________________________________________________________________________________________
activation_7326 (Activation)    (None, 500, 1)       0           dense_57659[0][0]                
__________________________________________________________________________________________________
dense_57660 (Dense)             (None, 500, 1)       2           activation_7326[0][0]            
==================================================================================================
Total params: 263
Trainable params: 263
Non-trainable params: 0
__________________________________________________________________________________________________
1/8 [==>...........................] - ETA: 0s - loss: 0.3632 - accuracy: 0.84388/8 [==============================] - 0s 438us/step - loss: 0.3319 - accuracy: 0.8640
…
