…
35/50: Best Fitness 0.29169178009033203
37/50: Best Fitness 0.29169178009033203
39/50: Best Fitness 0.29169178009033203
41/50: Best Fitness 0.29169178009033203
43/50: Best Fitness 0.29169178009033203
45/50: Best Fitness 0.2854066491127014
47/50: Best Fitness 0.2854066491127014
49/50: Best Fitness 0.2854066491127014
50/50: Best Fitness 0.2854066491127014
Model: "sequential_513"
_________________________________________________________________
Layer (type)                 Output Shape              Param #   
=================================================================
dense_1839 (Dense)           (None, 5)                 35        
_________________________________________________________________
re_lu_1326 (ReLU)            (None, 5)                 0         
_________________________________________________________________
dense_1840 (Dense)           (None, 15)                90        
_________________________________________________________________
re_lu_1327 (ReLU)            (None, 15)                0         
_________________________________________________________________
dense_1841 (Dense)           (None, 16)                256       
_________________________________________________________________
re_lu_1328 (ReLU)            (None, 16)                0         
_________________________________________________________________
dense_1842 (Dense)           (None, 1)                 17        
=================================================================
Total params: 398
Trainable params: 398
Non-trainable params: 0
_________________________________________________________________
1/8 [==>...........................] - ETA: 0s - loss: 0.1683 - accuracy: 1.00008/8 [==============================] - 0s 382us/step - loss: 0.1833 - accuracy: 0.9800
…
49/50: Best Fitness 0.3373144268989563
50/50: Best Fitness 0.3373144268989563
Model: "functional_1023"
__________________________________________________________________________________________________
Layer (type)                    Output Shape         Param #     Connected to                     
==================================================================================================
input_512 (InputLayer)          [(None, 500, 6)]     0                                            
__________________________________________________________________________________________________
dense_5417 (Dense)              (None, 500, 6)       42          input_512[0][0]                  
__________________________________________________________________________________________________
dense_5418 (Dense)              (None, 500, 6)       42          input_512[0][0]                  
__________________________________________________________________________________________________
concatenate_1279 (Concatenate)  (None, 500, 12)      0           dense_5417[0][0]                 
                                                                 dense_5418[0][0]                 
__________________________________________________________________________________________________
dense_5419 (Dense)              (None, 500, 10)      130         concatenate_1279[0][0]           
__________________________________________________________________________________________________
re_lu_1972 (ReLU)               (None, 500, 10)      0           dense_5419[0][0]                 
__________________________________________________________________________________________________
dense_5420 (Dense)              (None, 500, 6)       42          input_512[0][0]                  
__________________________________________________________________________________________________
concatenate_1278 (Concatenate)  (None, 500, 16)      0           re_lu_1972[0][0]                 
                                                                 dense_5420[0][0]                 
__________________________________________________________________________________________________
dense_5421 (Dense)              (None, 500, 4)       68          concatenate_1278[0][0]           
__________________________________________________________________________________________________
activation_633 (Activation)     (None, 500, 4)       0           dense_5421[0][0]                 
__________________________________________________________________________________________________
dense_5422 (Dense)              (None, 500, 6)       42          input_512[0][0]                  
__________________________________________________________________________________________________
dense_5424 (Dense)              (None, 500, 6)       42          input_512[0][0]                  
__________________________________________________________________________________________________
dense_5425 (Dense)              (None, 500, 6)       42          input_512[0][0]                  
__________________________________________________________________________________________________
concatenate_1277 (Concatenate)  (None, 500, 10)      0           activation_633[0][0]             
                                                                 dense_5422[0][0]                 
__________________________________________________________________________________________________
concatenate_1280 (Concatenate)  (None, 500, 12)      0           dense_5424[0][0]                 
                                                                 dense_5425[0][0]                 
__________________________________________________________________________________________________
dense_5423 (Dense)              (None, 500, 4)       44          concatenate_1277[0][0]           
__________________________________________________________________________________________________
dense_5426 (Dense)              (None, 500, 2)       26          concatenate_1280[0][0]           
__________________________________________________________________________________________________
re_lu_1973 (ReLU)               (None, 500, 4)       0           dense_5423[0][0]                 
__________________________________________________________________________________________________
activation_634 (Activation)     (None, 500, 2)       0           dense_5426[0][0]                 
__________________________________________________________________________________________________
concatenate_1276 (Concatenate)  (None, 500, 6)       0           re_lu_1973[0][0]                 
                                                                 activation_634[0][0]             
__________________________________________________________________________________________________
dense_5427 (Dense)              (None, 500, 10)      70          concatenate_1276[0][0]           
__________________________________________________________________________________________________
activation_635 (Activation)     (None, 500, 10)      0           dense_5427[0][0]                 
__________________________________________________________________________________________________
dense_5428 (Dense)              (None, 500, 1)       11          activation_635[0][0]             
==================================================================================================
Total params: 601
Trainable params: 601
Non-trainable params: 0
__________________________________________________________________________________________________
1/8 [==>...........................] - ETA: 0s - loss: 0.4726 - accuracy: 0.93758/8 [==============================] - 0s 537us/step - loss: 0.4105 - accuracy: 0.9600
…
