…
[SAVED TO all_outputs.txt] Saved Figure as "[4]depthhistory1.pdf"
Model: "functional_811"
__________________________________________________________________________________________________
Layer (type)                    Output Shape         Param #     Connected to                     
==================================================================================================
input_406 (InputLayer)          [(None, 500, 4)]     0                                            
__________________________________________________________________________________________________
dense_1871 (Dense)              (None, 500, 4)       20          input_406[0][0]                  
__________________________________________________________________________________________________
dense_1872 (Dense)              (None, 500, 4)       20          input_406[0][0]                  
__________________________________________________________________________________________________
concatenate_531 (Concatenate)   (None, 500, 8)       0           dense_1871[0][0]                 
                                                                 dense_1872[0][0]                 
__________________________________________________________________________________________________
dense_1873 (Dense)              (None, 500, 8)       72          concatenate_531[0][0]            
__________________________________________________________________________________________________
dense_1870 (Dense)              (None, 500, 4)       20          input_406[0][0]                  
__________________________________________________________________________________________________
re_lu_264 (ReLU)                (None, 500, 8)       0           dense_1873[0][0]                 
__________________________________________________________________________________________________
concatenate_530 (Concatenate)   (None, 500, 12)      0           dense_1870[0][0]                 
                                                                 re_lu_264[0][0]                  
__________________________________________________________________________________________________
dense_1874 (Dense)              (None, 500, 7)       91          concatenate_530[0][0]            
__________________________________________________________________________________________________
activation_266 (Activation)     (None, 500, 7)       0           dense_1874[0][0]                 
__________________________________________________________________________________________________
dense_1875 (Dense)              (None, 500, 1)       8           activation_266[0][0]             
==================================================================================================
Total params: 231
Trainable params: 231
Non-trainable params: 0
__________________________________________________________________________________________________
1/8 [==>...........................] - ETA: 0s - loss: 0.0478 - accuracy: 1.00008/8 [==============================] - 0s 399us/step - loss: 0.0429 - accuracy: 0.9960
…
[SAVED TO all_outputs.txt] Saved Figure as "[7]depthhistory2.pdf"
Model: "functional_1623"
__________________________________________________________________________________________________
Layer (type)                    Output Shape         Param #     Connected to                     
==================================================================================================
input_812 (InputLayer)          [(None, 500, 4)]     0                                            
__________________________________________________________________________________________________
dense_4401 (Dense)              (None, 500, 4)       20          input_812[0][0]                  
__________________________________________________________________________________________________
dense_4402 (Dense)              (None, 500, 4)       20          input_812[0][0]                  
__________________________________________________________________________________________________
concatenate_1392 (Concatenate)  (None, 500, 8)       0           dense_4401[0][0]                 
                                                                 dense_4402[0][0]                 
__________________________________________________________________________________________________
dense_4403 (Dense)              (None, 500, 3)       27          concatenate_1392[0][0]           
__________________________________________________________________________________________________
dense_4400 (Dense)              (None, 500, 4)       20          input_812[0][0]                  
__________________________________________________________________________________________________
activation_744 (Activation)     (None, 500, 3)       0           dense_4403[0][0]                 
__________________________________________________________________________________________________
concatenate_1391 (Concatenate)  (None, 500, 7)       0           dense_4400[0][0]                 
                                                                 activation_744[0][0]             
__________________________________________________________________________________________________
dense_4404 (Dense)              (None, 500, 4)       32          concatenate_1391[0][0]           
__________________________________________________________________________________________________
activation_745 (Activation)     (None, 500, 4)       0           dense_4404[0][0]                 
__________________________________________________________________________________________________
dense_4405 (Dense)              (None, 500, 4)       20          input_812[0][0]                  
__________________________________________________________________________________________________
concatenate_1390 (Concatenate)  (None, 500, 8)       0           activation_745[0][0]             
                                                                 dense_4405[0][0]                 
__________________________________________________________________________________________________
dense_4406 (Dense)              (None, 500, 4)       36          concatenate_1390[0][0]           
__________________________________________________________________________________________________
activation_746 (Activation)     (None, 500, 4)       0           dense_4406[0][0]                 
__________________________________________________________________________________________________
dense_4407 (Dense)              (None, 500, 4)       20          input_812[0][0]                  
__________________________________________________________________________________________________
concatenate_1389 (Concatenate)  (None, 500, 8)       0           activation_746[0][0]             
                                                                 dense_4407[0][0]                 
__________________________________________________________________________________________________
dense_4408 (Dense)              (None, 500, 7)       63          concatenate_1389[0][0]           
__________________________________________________________________________________________________
activation_747 (Activation)     (None, 500, 7)       0           dense_4408[0][0]                 
__________________________________________________________________________________________________
dense_4409 (Dense)              (None, 500, 1)       8           activation_747[0][0]             
==================================================================================================
Total params: 266
Trainable params: 266
Non-trainable params: 0
__________________________________________________________________________________________________
1/8 [==>...........................] - ETA: 0s - loss: 0.0604 - accuracy: 1.00008/8 [==============================] - 0s 471us/step - loss: 0.1003 - accuracy: 0.9840
…
[SAVED TO all_outputs.txt] Saved Figure as "[10]depthhistory3.pdf"
Model: "functional_5667"
__________________________________________________________________________________________________
Layer (type)                    Output Shape         Param #     Connected to                     
==================================================================================================
input_2834 (InputLayer)         [(None, 500, 4)]     0                                            
__________________________________________________________________________________________________
dense_20749 (Dense)             (None, 500, 4)       20          input_2834[0][0]                 
__________________________________________________________________________________________________
dense_20750 (Dense)             (None, 500, 4)       20          input_2834[0][0]                 
__________________________________________________________________________________________________
concatenate_7545 (Concatenate)  (None, 500, 8)       0           dense_20749[0][0]                
                                                                 dense_20750[0][0]                
__________________________________________________________________________________________________
dense_20751 (Dense)             (None, 500, 8)       72          concatenate_7545[0][0]           
__________________________________________________________________________________________________
dense_20746 (Dense)             (None, 500, 4)       20          input_2834[0][0]                 
__________________________________________________________________________________________________
dense_20747 (Dense)             (None, 500, 4)       20          input_2834[0][0]                 
__________________________________________________________________________________________________
activation_4999 (Activation)    (None, 500, 8)       0           dense_20751[0][0]                
__________________________________________________________________________________________________
dense_20752 (Dense)             (None, 500, 4)       20          input_2834[0][0]                 
__________________________________________________________________________________________________
concatenate_7543 (Concatenate)  (None, 500, 8)       0           dense_20746[0][0]                
                                                                 dense_20747[0][0]                
__________________________________________________________________________________________________
concatenate_7544 (Concatenate)  (None, 500, 12)      0           activation_4999[0][0]            
                                                                 dense_20752[0][0]                
__________________________________________________________________________________________________
dense_20748 (Dense)             (None, 500, 6)       54          concatenate_7543[0][0]           
__________________________________________________________________________________________________
dense_20753 (Dense)             (None, 500, 10)      130         concatenate_7544[0][0]           
__________________________________________________________________________________________________
activation_4998 (Activation)    (None, 500, 6)       0           dense_20748[0][0]                
__________________________________________________________________________________________________
activation_5000 (Activation)    (None, 500, 10)      0           dense_20753[0][0]                
__________________________________________________________________________________________________
concatenate_7542 (Concatenate)  (None, 500, 16)      0           activation_4998[0][0]            
                                                                 activation_5000[0][0]            
__________________________________________________________________________________________________
dense_20754 (Dense)             (None, 500, 2)       34          concatenate_7542[0][0]           
__________________________________________________________________________________________________
activation_5001 (Activation)    (None, 500, 2)       0           dense_20754[0][0]                
__________________________________________________________________________________________________
dense_20755 (Dense)             (None, 500, 4)       20          input_2834[0][0]                 
__________________________________________________________________________________________________
concatenate_7541 (Concatenate)  (None, 500, 6)       0           activation_5001[0][0]            
                                                                 dense_20755[0][0]                
__________________________________________________________________________________________________
dense_20756 (Dense)             (None, 500, 8)       56          concatenate_7541[0][0]           
__________________________________________________________________________________________________
re_lu_2542 (ReLU)               (None, 500, 8)       0           dense_20756[0][0]                
__________________________________________________________________________________________________
dense_20757 (Dense)             (None, 500, 4)       20          input_2834[0][0]                 
__________________________________________________________________________________________________
concatenate_7540 (Concatenate)  (None, 500, 12)      0           re_lu_2542[0][0]                 
                                                                 dense_20757[0][0]                
__________________________________________________________________________________________________
dense_20758 (Dense)             (None, 500, 1)       13          concatenate_7540[0][0]           
__________________________________________________________________________________________________
activation_5002 (Activation)    (None, 500, 1)       0           dense_20758[0][0]                
__________________________________________________________________________________________________
dense_20759 (Dense)             (None, 500, 1)       2           activation_5002[0][0]            
==================================================================================================
Total params: 501
Trainable params: 501
Non-trainable params: 0
__________________________________________________________________________________________________
1/8 [==>...........................] - ETA: 0s - loss: 0.0593 - accuracy: 1.00008/8 [==============================] - 0s 498us/step - loss: 0.0515 - accuracy: 0.9960
…
[SAVED TO all_outputs.txt] Saved Figure as "[7]depthhistory1.pdf"
Model: "functional_811"
__________________________________________________________________________________________________
Layer (type)                    Output Shape         Param #     Connected to                     
==================================================================================================
input_406 (InputLayer)          [(None, 500, 4)]     0                                            
__________________________________________________________________________________________________
dense_2493 (Dense)              (None, 500, 4)       20          input_406[0][0]                  
__________________________________________________________________________________________________
dense_2494 (Dense)              (None, 500, 4)       20          input_406[0][0]                  
__________________________________________________________________________________________________
concatenate_844 (Concatenate)   (None, 500, 8)       0           dense_2493[0][0]                 
                                                                 dense_2494[0][0]                 
__________________________________________________________________________________________________
dense_2495 (Dense)              (None, 500, 4)       36          concatenate_844[0][0]            
__________________________________________________________________________________________________
dense_2492 (Dense)              (None, 500, 4)       20          input_406[0][0]                  
__________________________________________________________________________________________________
activation_629 (Activation)     (None, 500, 4)       0           dense_2495[0][0]                 
__________________________________________________________________________________________________
concatenate_843 (Concatenate)   (None, 500, 8)       0           dense_2492[0][0]                 
                                                                 activation_629[0][0]             
__________________________________________________________________________________________________
dense_2496 (Dense)              (None, 500, 5)       45          concatenate_843[0][0]            
__________________________________________________________________________________________________
activation_630 (Activation)     (None, 500, 5)       0           dense_2496[0][0]                 
__________________________________________________________________________________________________
dense_2497 (Dense)              (None, 500, 4)       20          input_406[0][0]                  
__________________________________________________________________________________________________
concatenate_842 (Concatenate)   (None, 500, 9)       0           activation_630[0][0]             
                                                                 dense_2497[0][0]                 
__________________________________________________________________________________________________
dense_2498 (Dense)              (None, 500, 4)       40          concatenate_842[0][0]            
__________________________________________________________________________________________________
activation_631 (Activation)     (None, 500, 4)       0           dense_2498[0][0]                 
__________________________________________________________________________________________________
dense_2499 (Dense)              (None, 500, 4)       20          input_406[0][0]                  
__________________________________________________________________________________________________
concatenate_841 (Concatenate)   (None, 500, 8)       0           activation_631[0][0]             
                                                                 dense_2499[0][0]                 
__________________________________________________________________________________________________
dense_2500 (Dense)              (None, 500, 5)       45          concatenate_841[0][0]            
__________________________________________________________________________________________________
activation_632 (Activation)     (None, 500, 5)       0           dense_2500[0][0]                 
__________________________________________________________________________________________________
dense_2501 (Dense)              (None, 500, 1)       6           activation_632[0][0]             
==================================================================================================
Total params: 272
Trainable params: 272
Non-trainable params: 0
__________________________________________________________________________________________________
1/8 [==>...........................] - ETA: 0s - loss: 0.2337 - accuracy: 0.90628/8 [==============================] - 0s 500us/step - loss: 0.2171 - accuracy: 0.9040
…
61/100: Best Fitness 0.25197669863700867
66/100: Best Fitness 0.25197669863700867
71/100: Best Fitness 0.2485780268907547
76/100: Best Fitness 0.2485780268907547
81/100: Best Fitness 0.2485780268907547
86/100: Best Fitness 0.2485780268907547
91/100: Best Fitness 0.2485780268907547
96/100: Best Fitness 0.2485780268907547
100/100: Best Fitness 0.2485780268907547
Model: "sequential_3031"
_________________________________________________________________
Layer (type)                 Output Shape              Param #   
=================================================================
dense_10632 (Dense)          (None, 11)                55        
_________________________________________________________________
re_lu_7601 (ReLU)            (None, 11)                0         
_________________________________________________________________
dense_10633 (Dense)          (None, 5)                 60        
_________________________________________________________________
re_lu_7602 (ReLU)            (None, 5)                 0         
_________________________________________________________________
dense_10634 (Dense)          (None, 15)                90        
_________________________________________________________________
re_lu_7603 (ReLU)            (None, 15)                0         
_________________________________________________________________
dense_10635 (Dense)          (None, 9)                 144       
_________________________________________________________________
re_lu_7604 (ReLU)            (None, 9)                 0         
_________________________________________________________________
dense_10636 (Dense)          (None, 1)                 10        
=================================================================
Total params: 359
Trainable params: 359
Non-trainable params: 0
_________________________________________________________________
1/8 [==>...........................] - ETA: 0s - loss: 0.1455 - accuracy: 1.00008/8 [==============================] - 0s 451us/step - loss: 0.1508 - accuracy: 0.9880
…
61/100: Best Fitness 0.15814167261123657
66/100: Best Fitness 0.15814167261123657
71/100: Best Fitness 0.15814167261123657
76/100: Best Fitness 0.15814167261123657
81/100: Best Fitness 0.15814167261123657
86/100: Best Fitness 0.15814167261123657
91/100: Best Fitness 0.15814167261123657
96/100: Best Fitness 0.15814167261123657
100/100: Best Fitness 0.15814167261123657
Model: "sequential_3437"
_________________________________________________________________
Layer (type)                 Output Shape              Param #   
=================================================================
dense_12108 (Dense)          (None, 16)                80        
_________________________________________________________________
re_lu_8671 (ReLU)            (None, 16)                0         
_________________________________________________________________
dense_12109 (Dense)          (None, 15)                255       
_________________________________________________________________
re_lu_8672 (ReLU)            (None, 15)                0         
_________________________________________________________________
dense_12110 (Dense)          (None, 8)                 128       
_________________________________________________________________
re_lu_8673 (ReLU)            (None, 8)                 0         
_________________________________________________________________
dense_12111 (Dense)          (None, 1)                 9         
=================================================================
Total params: 472
Trainable params: 472
Non-trainable params: 0
_________________________________________________________________
1/8 [==>...........................] - ETA: 0s - loss: 0.1549 - accuracy: 1.00008/8 [==============================] - 0s 446us/step - loss: 0.1605 - accuracy: 0.9880
…
