…
[SAVED TO all_outputs.txt] Saved Figure as "[4]depthhistory1.pdf"
Model: "functional_811"
__________________________________________________________________________________________________
Layer (type)                    Output Shape         Param #     Connected to                     
==================================================================================================
input_406 (InputLayer)          [(None, 500, 4)]     0                                            
__________________________________________________________________________________________________
dense_2688 (Dense)              (None, 500, 4)       20          input_406[0][0]                  
__________________________________________________________________________________________________
dense_2689 (Dense)              (None, 500, 4)       20          input_406[0][0]                  
__________________________________________________________________________________________________
concatenate_942 (Concatenate)   (None, 500, 8)       0           dense_2688[0][0]                 
                                                                 dense_2689[0][0]                 
__________________________________________________________________________________________________
dense_2690 (Dense)              (None, 500, 11)      99          concatenate_942[0][0]            
__________________________________________________________________________________________________
re_lu_659 (ReLU)                (None, 500, 11)      0           dense_2690[0][0]                 
__________________________________________________________________________________________________
dense_2691 (Dense)              (None, 500, 4)       20          input_406[0][0]                  
__________________________________________________________________________________________________
concatenate_941 (Concatenate)   (None, 500, 15)      0           re_lu_659[0][0]                  
                                                                 dense_2691[0][0]                 
__________________________________________________________________________________________________
dense_2692 (Dense)              (None, 500, 15)      240         concatenate_941[0][0]            
__________________________________________________________________________________________________
re_lu_660 (ReLU)                (None, 500, 15)      0           dense_2692[0][0]                 
__________________________________________________________________________________________________
dense_2693 (Dense)              (None, 500, 4)       20          input_406[0][0]                  
__________________________________________________________________________________________________
dense_2695 (Dense)              (None, 500, 4)       20          input_406[0][0]                  
__________________________________________________________________________________________________
dense_2696 (Dense)              (None, 500, 4)       20          input_406[0][0]                  
__________________________________________________________________________________________________
concatenate_940 (Concatenate)   (None, 500, 19)      0           re_lu_660[0][0]                  
                                                                 dense_2693[0][0]                 
__________________________________________________________________________________________________
concatenate_943 (Concatenate)   (None, 500, 8)       0           dense_2695[0][0]                 
                                                                 dense_2696[0][0]                 
__________________________________________________________________________________________________
dense_2694 (Dense)              (None, 500, 5)       100         concatenate_940[0][0]            
__________________________________________________________________________________________________
dense_2697 (Dense)              (None, 500, 6)       54          concatenate_943[0][0]            
__________________________________________________________________________________________________
re_lu_661 (ReLU)                (None, 500, 5)       0           dense_2694[0][0]                 
__________________________________________________________________________________________________
activation_280 (Activation)     (None, 500, 6)       0           dense_2697[0][0]                 
__________________________________________________________________________________________________
concatenate_939 (Concatenate)   (None, 500, 11)      0           re_lu_661[0][0]                  
                                                                 activation_280[0][0]             
__________________________________________________________________________________________________
dense_2698 (Dense)              (None, 500, 11)      132         concatenate_939[0][0]            
__________________________________________________________________________________________________
re_lu_662 (ReLU)                (None, 500, 11)      0           dense_2698[0][0]                 
__________________________________________________________________________________________________
dense_2699 (Dense)              (None, 500, 1)       12          re_lu_662[0][0]                  
==================================================================================================
Total params: 757
Trainable params: 757
Non-trainable params: 0
__________________________________________________________________________________________________
1/8 [==>...........................] - ETA: 0s - loss: 0.0336 - accuracy: 1.00008/8 [==============================] - 0s 536us/step - loss: 0.0320 - accuracy: 0.9920
…
