…
[SAVED TO all_outputs.txt] Saved Figure as "[3]test_data_plot.png"
[SAVED TO all_outputs.txt] 

===NEW BATCH: batchPSO-lin-a-vary.txt===


[SAVED TO all_outputs.txt] ARGS:  {'w': 0.7015728752538095, 'a1': 1.0, 'a2': 1.0, 'a3': 0.0, 'population_size': 30, 'time_steps': 1000, 'search_range': 10, 'constrainer': <function run_script.<locals>.<lambda> at 0x7f4cf9d765e0>}
Model: "sequential"
_________________________________________________________________
Layer (type)                 Output Shape              Param #   
=================================================================
dense (Dense)                (500, 6)                  18        
_________________________________________________________________
re_lu (ReLU)                 (500, 6)                  0         
_________________________________________________________________
dense_1 (Dense)              (500, 5)                  35        
_________________________________________________________________
re_lu_1 (ReLU)               (500, 5)                  0         
_________________________________________________________________
dense_2 (Dense)              (500, 4)                  24        
_________________________________________________________________
re_lu_2 (ReLU)               (500, 4)                  0         
_________________________________________________________________
dense_3 (Dense)              (500, 1)                  5         
=================================================================
Total params: 82
Trainable params: 82
Non-trainable params: 0
_________________________________________________________________
[SAVED TO all_outputs.txt] PSO 1 Training for 1000 Epochs with Population 30
init
Time:     49,  Best Fitness:       0.999752
Best Pos: [  … Time:     99,  Best Fitness:       0.999747
Best Pos: [ … Time:    149,  Best Fitness:       0.999747
…
