…
61/100: Best Fitness 0.4513826370239258
66/100: Best Fitness 0.4513826370239258
71/100: Best Fitness 0.4513826370239258
76/100: Best Fitness 0.4513826370239258
81/100: Best Fitness 0.4513826370239258
86/100: Best Fitness 0.4513826370239258
91/100: Best Fitness 0.4513826370239258
96/100: Best Fitness 0.4513826370239258
100/100: Best Fitness 0.4513826370239258
Model: "sequential_3033"
_________________________________________________________________
Layer (type)                 Output Shape              Param #   
=================================================================
dense_10735 (Dense)          (None, 11)                55        
_________________________________________________________________
re_lu_7702 (ReLU)            (None, 11)                0         
_________________________________________________________________
dense_10736 (Dense)          (None, 7)                 84        
_________________________________________________________________
re_lu_7703 (ReLU)            (None, 7)                 0         
_________________________________________________________________
dense_10737 (Dense)          (None, 5)                 40        
_________________________________________________________________
re_lu_7704 (ReLU)            (None, 5)                 0         
_________________________________________________________________
dense_10738 (Dense)          (None, 9)                 54        
_________________________________________________________________
re_lu_7705 (ReLU)            (None, 9)                 0         
_________________________________________________________________
dense_10739 (Dense)          (None, 7)                 70        
_________________________________________________________________
re_lu_7706 (ReLU)            (None, 7)                 0         
_________________________________________________________________
dense_10740 (Dense)          (None, 1)                 8         
=================================================================
Total params: 311
Trainable params: 311
Non-trainable params: 0
_________________________________________________________________
1/8 [==>...........................] - ETA: 0s - loss: 0.4515 - accuracy: 0.87508/8 [==============================] - 0s 478us/step - loss: 0.3461 - accuracy: 0.9080
…
[SAVED TO all_outputs.txt] Saved Figure as "[12]depthhistory1.pdf"
Model: "functional_6063"
__________________________________________________________________________________________________
Layer (type)                    Output Shape         Param #     Connected to                     
==================================================================================================
input_3032 (InputLayer)         [(None, 500, 4)]     0                                            
__________________________________________________________________________________________________
dense_18523 (Dense)             (None, 500, 4)       20          input_3032[0][0]                 
__________________________________________________________________________________________________
dense_18524 (Dense)             (None, 500, 4)       20          input_3032[0][0]                 
__________________________________________________________________________________________________
concatenate_860 (Concatenate)   (None, 500, 8)       0           dense_18523[0][0]                
                                                                 dense_18524[0][0]                
__________________________________________________________________________________________________
dense_18525 (Dense)             (None, 500, 3)       27          concatenate_860[0][0]            
__________________________________________________________________________________________________
activation_587 (Activation)     (None, 500, 3)       0           dense_18525[0][0]                
__________________________________________________________________________________________________
dense_18526 (Dense)             (None, 500, 1)       4           activation_587[0][0]             
==================================================================================================
Total params: 71
Trainable params: 71
Non-trainable params: 0
__________________________________________________________________________________________________
1/8 [==>...........................] - ETA: 0s - loss: 0.6099 - accuracy: 0.71888/8 [==============================] - 0s 452us/step - loss: 0.5947 - accuracy: 0.7200
…
