…
[SAVED TO all_outputs.txt] Changed Parameters: USE_LINEAR_ONLY_MODEL->True
full data
[SAVED TO all_outputs.txt] Saved Figure as "[10]full_data_plot.pdf"
train data
[SAVED TO all_outputs.txt] Saved Figure as "[11]train_data_plot.pdf"
test data
[SAVED TO all_outputs.txt] Saved Figure as "[12]test_data_plot.pdf"
[SAVED TO all_outputs.txt] ARGS:  {'population_size': 30, 'time_steps': 1000, 'averaging': 100}
Model: "sequential_4"
_________________________________________________________________
Layer (type)                 Output Shape              Param #   
=================================================================
dense_8 (Dense)              (500, 6)                  18        
_________________________________________________________________
re_lu_4 (ReLU)               (500, 6)                  0         
_________________________________________________________________
dense_9 (Dense)              (500, 5)                  35        
_________________________________________________________________
re_lu_5 (ReLU)               (500, 5)                  0         
_________________________________________________________________
dense_10 (Dense)             (500, 4)                  24        
_________________________________________________________________
re_lu_6 (ReLU)               (500, 4)                  0         
_________________________________________________________________
dense_11 (Dense)             (500, 1)                  5         
=================================================================
Total params: 82
Trainable params: 82
Non-trainable params: 0
_________________________________________________________________
[SAVED TO all_outputs.txt] Gradient Descent 3 Training for 1000 Epochs with 30 per Batch
1/8 [==>...........................] - ETA: 0s - loss: 0.6963 - accuracy: 0.59388/8 [==============================] - 0s 352us/step - loss: 0.6668 - accuracy: 0.6360
…
[SAVED TO all_outputs.txt] Raw kwargs: {'total_a': 3.9, 'a1_percent': 0.5, 'epsilon': -0.25, 'population_size': 30, 'time_steps': 1000, 'a3': 0.0}
[SAVED TO all_outputs.txt] ARGS:  {'w': 0.7003164683737002, 'a1': 1.95, 'a2': 1.95, 'a3': 0.0, 'population_size': 30, 'time_steps': 1000, 'search_range': 1000, 'constrainer': <function run_script.<locals>.<lambda> at 0x7fc810581b80>}
Model: "sequential_6"
_________________________________________________________________
Layer (type)                 Output Shape              Param #   
=================================================================
dense_16 (Dense)             (250, 6)                  18        
_________________________________________________________________
re_lu_10 (ReLU)              (250, 6)                  0         
_________________________________________________________________
dense_17 (Dense)             (250, 5)                  35        
_________________________________________________________________
re_lu_11 (ReLU)              (250, 5)                  0         
_________________________________________________________________
dense_18 (Dense)             (250, 4)                  24        
_________________________________________________________________
re_lu_12 (ReLU)              (250, 4)                  0         
_________________________________________________________________
dense_19 (Dense)             (250, 1)                  5         
=================================================================
Total params: 82
Trainable params: 82
Non-trainable params: 0
_________________________________________________________________
[SAVED TO all_outputs.txt] PSO 3 Training for 1000 Epochs with Population 30
init
Time:     49,  Best Fitness:       0.706637
Best Pos: [ … Time:     99,  Best Fitness:       0.706349
Best Pos: [ … Time:    149,  Best Fitness:       0.705953
…
